…
2024-11-12 21:24:18.075 INFO CPU                : AMD Ryzen Threadripper 3990X 64-Core Processor
2024-11-12 21:24:18.076 INFO RAM                : 252 GB
2024-11-12 21:24:18.076 INFO OS                 : Linux-6.8.0-48-generic-x86_64-with-glibc2.39
2024-11-12 21:24:18.076 INFO Python Version     : 3.12.3
2024-11-12 21:24:18.076 INFO TensorFlow Version : 2.17.0
2024-11-12 21:24:18.076 INFO ------------------------------------------------------------------
2024-11-12 21:24:18.076 INFO 
2024-11-12 21:24:52.323 INFO Model: "functional_1"

 Layer (type)                   Output Shape                       Param #  Connected to               

 left (InputLayer)              (None, 128, 100)                         0  -                          

 right (InputLayer)             (None, 128, 100)                         0  -                          

 sequential (Sequential)        (None, 32)                          61,616  left[0][0], right[0][0]    

     batch_normalization       (None, 128, 100)                       400  -                          
 (BatchNormalization)                                                                                  

     bidirectional             (None, 128, 64)                     34,048  -                          
 (Bidirectional)                                                                                       

     dropout (Dropout)         (None, 128, 64)                          0  -                          

     batch_normalization_1     (None, 128, 64)                        256  -                          
 (BatchNormalization)                                                                                  

     bidirectional_1           (None, 64)                          24,832  -                          
 (Bidirectional)                                                                                       

     unit_normalization        (None, 64)                               0  -                          
 (UnitNormalization)                                                                                   

     dense (Dense)             (None, 32)                           2,080  -                          

 lambda (Lambda)                (None, 1)                                0  sequential[0][0],          
                                                                            sequential[1][0]           

 Total params: 61,616 (240.69 KB)
 Trainable params: 61,288 (239.41 KB)
 Non-trainable params: 328 (1.28 KB)

