…
2024-10-22 21:17:50.789 INFO CPU                : AMD Ryzen Threadripper 3990X 64-Core Processor
2024-10-22 21:17:50.790 INFO RAM                : 252 GB
2024-10-22 21:17:50.790 INFO OS                 : Linux-6.8.0-47-generic-x86_64-with-glibc2.39
2024-10-22 21:17:50.790 INFO Python Version     : 3.12.3
2024-10-22 21:17:50.790 INFO TensorFlow Version : 2.17.0
2024-10-22 21:17:50.790 INFO ------------------------------------------------------------------
2024-10-22 21:17:50.790 INFO 
2024-10-22 21:17:51.714 INFO Model: "functional_1"

 Layer (type)                   Output Shape                       Param #  Connected to               

 left (InputLayer)              (None, 128, 100)                         0  -                          

 right (InputLayer)             (None, 128, 100)                         0  -                          

 sequential (Sequential)        (None, 32)                          47,280  left[0][0], right[0][0]    

     batch_normalization       (None, 128, 100)                       400  -                          
 (BatchNormalization)                                                                                  

     bidirectional             (None, 128, 64)                     25,728  -                          
 (Bidirectional)                                                                                       

     dropout (Dropout)         (None, 128, 64)                          0  -                          

     batch_normalization_1     (None, 128, 64)                        256  -                          
 (BatchNormalization)                                                                                  

     bidirectional_1           (None, 64)                          18,816  -                          
 (Bidirectional)                                                                                       

     unit_normalization        (None, 64)                               0  -                          
 (UnitNormalization)                                                                                   

     dense (Dense)             (None, 32)                           2,080  -                          

 lambda (Lambda)                (None, 1)                                0  sequential[0][0],          
                                                                            sequential[1][0]           

 Total params: 47,280 (184.69 KB)
 Trainable params: 46,952 (183.41 KB)
 Non-trainable params: 328 (1.28 KB)

