…
2024-10-22 21:12:47.996 INFO CPU                : AMD Ryzen Threadripper 3990X 64-Core Processor
2024-10-22 21:12:47.997 INFO RAM                : 252 GB
2024-10-22 21:12:47.997 INFO OS                 : Linux-6.8.0-47-generic-x86_64-with-glibc2.39
2024-10-22 21:12:47.997 INFO Python Version     : 3.12.3
2024-10-22 21:12:47.997 INFO TensorFlow Version : 2.17.0
2024-10-22 21:12:47.997 INFO ------------------------------------------------------------------
2024-10-22 21:12:47.997 INFO 
2024-10-22 21:12:48.925 INFO Model: "functional_1"

 Layer (type)                   Output Shape                       Param #  Connected to               

 left (InputLayer)              (None, 128, 100)                         0  -                          

 right (InputLayer)             (None, 128, 100)                         0  -                          

 sequential (Sequential)        (None, 32)                          20,784  left[0][0], right[0][0]    

     batch_normalization       (None, 128, 100)                       400  -                          
 (BatchNormalization)                                                                                  

     gru (GRU)                 (None, 128, 32)                     12,864  -                          

     dropout (Dropout)         (None, 128, 32)                          0  -                          

     batch_normalization_1     (None, 128, 32)                        128  -                          
 (BatchNormalization)                                                                                  

     gru_1 (GRU)               (None, 32)                           6,336  -                          

     unit_normalization        (None, 32)                               0  -                          
 (UnitNormalization)                                                                                   

     dense (Dense)             (None, 32)                           1,056  -                          

 lambda (Lambda)                (None, 1)                                0  sequential[0][0],          
                                                                            sequential[1][0]           

 Total params: 20,784 (81.19 KB)
 Trainable params: 20,520 (80.16 KB)
 Non-trainable params: 264 (1.03 KB)

